…
e(\n    optimizer='adam',\n    loss = 'categorical_crossentropy',\n    metrics=['accuracy'],\n)\nmodel.summary()\n\n\nDownloading data from https://storage.googleapis.com/keras-applications/efficientnetb3_notop.h5\n43941888/43941136 [==============================] - 0s 0us/step\n43950080/43941136 [==============================] - 0s 0us/step\nModel: \"sequential\"\n_________________________________________________________________\nLayer (type)                 Output Shape              Param #   \n=================================================================\nrandom_crop (RandomCrop)     (None, 300, 300, 3)       0         \n_________________________________________________________________\nlambda (Lambda)              (None, 300, 300, 3)       0         \n_________________________________________________________________\nefficientnetb3 (Functional)  (None, 10, 10, 1536)      10783535  \n_________________________________________________________________\nglobal_average_pooling2d (Gl (None, 1536)              0         \n_________________________________________________________________\ndropout (Dropout)            (None, 1536)              0         \n_________________________________________________________________\nlast_dense (Dense)           (None, 104)               159848    \n_________________________________________________________________\npredictions (Activation)     (None, 104)               0         \n=================================================================\nTotal params: 10,943,383\nTrainable params: 10,856,080\nNon-trainable params: 87,303\n_________________________________________________________________\n\n\n\n\nLearning rate schedule\nIt can be tricky to find a learning rate that works well in a finetuning task. Let’s try the following learning schedule that combines wa
…
